…
Dataset type: masked
Hello from rank 3 of 4 on spdr18.cluster where there are 4 allocated GPUs per node.
Dataset type: masked
Hello from rank 0 of 4 on spdr18.cluster where there are 4 allocated GPUs per node.
Dataset type: masked
RCCL started on device cuda:2
RCCL started on device cuda:3
Group initialized? True
RCCL started on device cuda:0
RCCL started on device cuda:1
host: spdr18.cluster, rank: 0, local_rank: 0
Training for 7,812 steps with 4 GPUs
In total, the model will be trained on 'steps'(7,812) x 'GPUs'(4) x 'batch_size'(256) x 'seq_len'(128) = 1,023,934,464 subword instances
Bert(
  (embedding): Embedding(
    (word_embedding): Embedding(8192, 384)
    (word_layer_norm): LayerNorm((384,), eps=1e-05, elementwise_affine=False)
    (dropout): Dropout(p=0.1, inplace=False)
    (relative_layer_norm): LayerNorm((384,), eps=1e-05, elementwise_affine=True)
  )
  (transformer): Encoder(
    (attention_layers): ModuleList(
      (0-11): 12 x Attention(
        (in_proj_qk): Linear(in_features=384, out_features=768, bias=True)
        (in_proj_vg): Linear(in_features=384, out_features=768, bias=True)
        (out_proj): Linear(in_features=384, out_features=384, bias=True)
        (pre_layer_norm): LayerNorm((384,), eps=1e-05, elementwise_affine=False)
        (post_layer_norm): LayerNorm((384,), eps=1e-05, elementwise_affine=False)
        (dropout): Dropout(p=0.1, inplace=False)
      )
    )
    (mlp_layers): ModuleList(
      (0-11): 12 x FeedForward(
        (mlp): Sequential(
          (0): LayerNorm((384,), eps=1e-05, elementwise_affine=False)
          (1): Linear(in_features=384, out_features=2560, bias=False)
          (2): GeGLU()
          (3): LayerNorm((1280,), eps=1e-05, elementwise_affine=False)
          (4): Linear(in_features=1280, out_features=384, bias=False)
          (5): Dropout(p=0.1, inplace=False)
        )
      )
    )
    (dwa_modules): DWAModules(
      (alphas): ParameterList(
          (0): Parameter containing: [torch.float32 of size 2]
          (1): Parameter containing: [torch.float32 of size 3]
          (2): Parameter containing: [torch.float32 of size 4]
          (3): Parameter containing: [torch.float32 of size 5]
…
